machine learning/face_varification/param/conv_1.weight.npy (npy, 9728 bytes, 1 tensors)

array f4 [96, 1, 5, 5]
000000 c8 2b 98 3b 30 e9 8b bb ec 7c e3 bb ed 4d e2 3a
       0.004643891 -0.0042697415 -0.006942382 0.0017265655
000010 c5 6d 79 3a 9e 50 05 3c a2 4c 78 3c f4 0a 23 3c
       0.0009514953 0.008136896 0.015154989 0.009951342
000020 db a4 27 3c f8 59 94 3c e0 3f d5 3b 62 a9 b0 3b
       0.010232176 0.018109307 0.0065078586 0.0053912858
000030 a7 fe 03 3c 2d 2d 94 3c 6b 91 21 3c 80 38 db 3b
       0.008056319 0.018087948 0.0098613305 0.006690085
000040 cb ff 59 3c 43 b7 c7 3c a9 af 9f 3c 63 d5 77 3c
       0.013305615 0.024379378 0.019492941 0.015126559
000050 72 82 8d bc 36 e7 fa 3a 77 41 97 3a d5 a8 93 bb
       -0.017274115 0.0019142393 0.0011539896 -0.0045062103
000060 63 1e 4d bc 8e a9 05 3d f1 72 64 3d 4c ee b7 3d
       -0.012519452 0.032632403 0.05577368 0.089809984
000070 9d 7c bc 3d 6f 9b d7 bd 2c 7d 0f bd 79 40 74 bd
       0.092034556 -0.105276935 -0.035031483 -0.0596318
000080 8e aa b4 3d bd ec 2b 3e 65 e4 2f be ac fa 58 be
       0.08821593 0.16789527 -0.1717697 -0.21189374
000090 fb e2 86 be aa 6d 51 3e 78 31 d4 3e 47 37 8a 3b
       -0.26345047 0.2045199 0.41443992 0.0042180154
0000a0 77 04 66 be dd c5 b5 be 59 e6 c9 3d 26 6e b3 3e
       -0.2246264 -0.3550252 0.098583885 0.35044974
0000b0 1d d7 05 3e 82 6c 42 be f2 1f 86 be b2 59 02 be
       0.1307034 -0.18986705 -0.26196247 -0.12729529
0000c0 82 74 b5 3c 3b eb 13 bd 86 3b 6a be d6 a8 99 be
       0.022150282 -0.036113005 -0.22874269 -0.30011624
0000d0 1a 95 93 be c3 15 d8 bd 30 62 15 bc f5 76 33 be
       -0.28824693 -0.10551026 -0.009117648 -0.17525847
0000e0 8b 47 87 be fc bd 70 bd 6e 2c 8e 3e 74 bc 9b 3e
       -0.2642177 -0.058774933 0.27768272 0.30417216
0000f0 34 c3 30 be 3d ca 11 bd 4a 15 96 3e 20 86 d0 3e
       -0.17261964 -0.03559326 0.29313117 0.4072733
000100 3a 84 43 3e 1e 5d 73 3d 63 be 85 3e af 23 af 3e
       0.19093409 0.059414975 0.26121816 0.34206912
000110 ad 4b 47 3e 33 37 9c bd a1 a5 eb 3c 0d 2a 71 3d
       0.19462462 -0.07627716 0.028765501 0.058877993
000120 d1 c6 49 bd 7d b3 23 be c8 9f 85 be 5b a4 10 be
       -0.04926187 -0.15986438 -0.26098466 -0.14125197
000130 e0 19 99 3c 1f 44 10 3e 59 f6 35 3e 5c 3b bb 3d
       0.018689096 0.14088486 0.17769755 0.09142181
000140 df 8b 94 be 6d d3 6f bd 87 87 3c 3e f5 24 20 3e
       -0.29012963 -0.05855124 0.18411075 0.15639098
000150 51 7b 1a bd 02 d8 f9 3d b5 a8 d7 3e 3b 26 14 3f
       -0.03771526 0.12199403 0.421209 0.57870835
000160 f3 fb c0 3e a1 57 14 3e c2 9c db 3d cf 5f b3 3e
       0.37692222 0.14486553 0.107232586 0.35034034
000170 d9 63 b6 3e ab e3 d8 3d 6b 53 39 bd 2d 46 4e 3e
       0.35623053 0.10590299 -0.04524557 0.20143957
000180 ae 70 44 3e 83 38 ff 3d da 16 99 3d ce b5 39 3d
       0.19183609 0.12461951 0.07475062 0.045339398
000190 c8 b8 49 bf f2 e3 10 bf 92 e6 b1 be 42 b9 f4 bd
       -0.7879758 -0.56597817 -0.34746224 -0.119493976
0001a0 59 12 3e be 92 98 0d bf 13 d9 89 3c 38 dc af 3e
       -0.18561687 -0.5531093 0.016827142 0.343477
0001b0 33 4f b9 3e bb ad a6 3d e2 4d e4 be 31 fe 46 3e
       0.36193237 0.08138605 -0.4459067 0.19432904
0001c0 4d 21 da 3e 03 d9 7b 3e 7f 1c 04 be 85 08 d7 be
       0.4260353 0.24594502 -0.12901495 -0.41998687
0001d0 19 44 b4 3c 63 6c 5e 3e a0 e1 25 3e 15 cd b7 bd
       0.022005128 0.21721034 0.1619935 -0.08974663
0001e0 4c 1c 7b be 1e 26 f7 3c be 79 15 3e 95 7b 37 3e
       -0.24522513 0.030169543 0.14597222 0.17918237
0001f0 6b 98 05 bc 8d 39 26 bc 89 b4 1f 3c 8e e2 68 3c
       -0.008154015 -0.010145557 0.009747633 0.014214171
000200 af 5d 27 bb be 6a 70 bc 43 e5 52 bd 55 19 31 bc
       -0.0025538018 -0.014673887 -0.051488172 -0.010809262
000210 a7 f7 12 3d 02 77 8d 3c 8b 85 3a 3b 0a 6b 8c bd
       0.03588071 0.017268661 0.0028460945 -0.068563536
000220 1d c8 ad bd fa 6a ef bc c6 e0 f7 bc 48 46 f0 bc
       -0.08485434 -0.029225815 -0.030258548 -0.029330388
000230 bd 1a 2c bd d9 a5 7e bd fb 2f 95 bc 91 fe b2 bc
       -0.042017687 -0.062169883 -0.018211355 -0.021849902
000240 c5 75 a7 bc 55 97 6e bd 9a 56 90 bd 77 52 15 bd
       -0.0204419 -0.05824979 -0.07047768 -0.036455598
000250 13 89 91 bc ff 61 be bc 11 c5 cd 39 5e ab ad bb
       -0.017765557 -0.023240088 0.00039247473 -0.0052999696
000260 3e 17 c8 ba bd 83 1c bb 38 a3 fb 3a 67 46 3b bb
       -0.0015265716 -0.0023882233 0.0019198423 -0.0028575899
000270 31 f6 74 bb eb d1 af ba 3b 38 94 3b b7 c7 bc b8
       -0.0037378187 -0.0013414001 0.0045233048 -9.001738e-05
000280 c0 fa 9a bb 6f a2 8e bb 76 07 fa 39 d2 d2 85 3b
       -0.0047295988 -0.0043528597 0.00047689275 0.0040839696
000290 34 8d 94 bb 4f 91 0d ba d4 d8 41 bb 13 45 f1 3a
       -0.0045334343 -0.0005400376 -0.0029578703 0.0018407427
0002a0 4e ec 99 3b f0 f1 41 3b 1c e2 02 3b 50 cf a1 ba
       0.004697359 0.002959367 0.0019971197 -0.0012345109
0002b0 c9 99 26 bb b0 8e 78 3b 36 b8 1e ba 47 a6 60 3c
       -0.0025421253 0.0037926845 -0.0006054671 0.013711519
0002c0 e7 7b 67 bc 9f 6f dc bc c7 78 21 bd ed 64 cc bc
       -0.014128662 -0.026908694 -0.039421823 -0.024950469
0002d0 3b 36 a9 3c d7 55 0e bb d0 7a 0c bd 37 19 8f bd
       0.020655742 -0.0021718645 -0.03429681 -0.06987231
0002e0 a5 eb 32 bd 64 84 d0 3b 94 f1 23 bd 6d fe 9b bd
       -0.04368176 0.0063634384 -0.04002531 -0.07616887
0002f0 0b c7 a1 bd ab d5 30 bd 20 fb 03 bd a5 0e 89 bd
       -0.078992926 -0.04317252 -0.032221913 -0.06692246
000300 7d 47 6f bd 89 85 bc bc 16 96 86 3c fd d6 6b bd
       -0.058417786 -0.023012893 0.016428988 -0.057578076
000310 ba 16 8b bd 20 59 0b bd 6c 87 7a bb 61 d4 db 3c
       -0.06791444 -0.034020543 -0.003822769 0.026834669
000320 db 21 78 bc bd 32 7b 3b 28 0f c5 bc a3 44 42 bb
       -0.0151447905 0.0038329803 -0.024055079 -0.0029642961
000330 38 9e 0a bc 97 2d 1c 3c c6 5a d4 3c 49 5e 52 bc
       -0.008460574 0.009532354 0.02592219 -0.012839862
000340 d6 62 70 3c 05 db 95 bb f3 24 a5 bc 3f 4d 97 bb
       0.014672002 -0.0045732283 -0.02015922 -0.0046173627
000350 88 23 07 bd ea 8f b6 bb 85 d2 08 bc 4c 2c bb bb
       -0.03299287 -0.005571355 -0.008350973 -0.0057120677
000360 02 9e 3d bc b4 0b 94 3c d4 f8 50 bc 2e 80 c9 bb
       -0.0115733165 0.018071987 -0.012754638 -0.0061493134
000370 e0 4a 3e bc b3 cb 71 bc e4 4d 24 3c 6f a8 58 bc
       -0.011614531 -0.014758038 0.010028336 -0.013223751
000380 71 ab 4c bc c6 46 4b 3b 7f ed e5 bb 63 b4 20 bc
       -0.012492047 0.0031017526 -0.007016837 -0.009808633
000390 e6 ff a5 bc 47 46 ab bc 0e 75 d7 3a 97 bd ac bb
       -0.020263623 -0.020907534 0.0016438083 -0.0052716243
0003a0 2a c3 6e bc 1a a3 bc bc f0 c5 e7 bc 5b 6a 84 bc
       -0.014572898 -0.023026992 -0.028292626 -0.016163995
0003b0 01 c6 2c bc 78 da 00 bd 9d 20 37 bd 5b 3d 31 bd
       -0.010545255 -0.031458348 -0.044708837 -0.043271404
0003c0 b5 16 49 bc 00 85 84 bc 19 3c 0c bd 41 45 29 bd
       -0.01227348 -0.0161767 -0.034237 -0.04132581
0003d0 1d b1 3a bd 6c 79 51 bc 35 41 3b bc 81 57 0c bd
       -0.045579065 -0.012785297 -0.011429121 -0.034263138
0003e0 d6 e8 1e bd 6b 31 2d bd ad d8 93 bd 95 9d a0 be
       -0.03879627 -0.042283457 -0.07219062 -0.31370226
0003f0 eb 3c a0 3e 4e de cb 3d d1 43 b4 bd 95 32 66 3e
       0.31296477 0.09954511 -0.088019975 0.22480233
