machine learning/face_varification/param/conv_1.bias.npy (npy, 512 bytes, 1 tensors)

array f4 [96]
00000000: 4694 99bf 9e52 ef3d 6674 03be 16ba aebf
00000010: 2e2c 3a3f f37b 43bf 6814 0bbf e289 13bd
00000020: 976b 54bf a39a 54bf ff77 973d 89b2 133c
00000030: 3f49 a8bd e862 e2be 932d 5fbe 5bf4 04c0
00000040: feb7 96be 43c8 263e 2a1a 03bf d4e6 62bf
00000050: 7fdd 6dbe eb73 373f 2c84 48bf 5a1e 6dbf
00000060: 3888 083e e0be babe 42e1 453f 1dde 5cbd
00000070: bd71 f4be 374a 6dbf ad85 3ebf 644d e7be
00000080: 7dd6 643e ee96 0cbf 833c 0b3c b15a 3ebe
00000090: 687a 4c3d 6484 bc3d 6726 3fbf cb57 ec3c
000000a0: 124b aabe 9291 e9be a673 cf3e c93e 523e
000000b0: aa4f 253f 0aa4 2fbd 4ad5 e2be 3df9 f2be
000000c0: 5b4f 8a3e 6bde b5bd f996 18be 89ed acbf
000000d0: e167 6d3e 1316 f2be e176 39be 1ef0 973e
000000e0: d7a8 573e 3f0d 49bf 2b4e 9e3e 544d b23e
000000f0: 1403 efbe 9f23 19bf 391e 143e e193 dd3e
00000100: 3a74 6f3e 6501 49bf 17d2 03bf e733 b0bf
00000110: 1120 303e bdc0 9b3e 41f1 233e 5932 93bd
00000120: 6cfb e23d 5498 dabe e55b 55be d9d4 c1be
00000130: 371c 2ebe 5f32 183f b1e3 3dbf cded 5abe
00000140: f28d e1be 443a 27bf 7796 903e 339c d9be
00000150: 2b50 1d3e 8108 b1bf ea28 0cbc fc92 36bb
00000160: 41e1 cabe 4c94 89be 6e65 873e 0b2b 77be
00000170: 50b3 f8bd 9a36 10bd c32f 323b 0f4e 08be
-1.1998374 0.1168568 -0.12837371 -1.3650539 0.7272366 -0.76361006 -0.5432801 -0.036020167
-0.8297667 -0.83048457 0.07395934 0.009014734 -0.082170956 -0.44216084 -0.21794729 -2.0774143
-0.2943725 0.16287331 -0.512118 -0.88633466 -0.23229025 0.7166125 -0.7832668 -0.9262444
0.13333213 -0.3647375 0.7729684 -0.05392276 -0.47743025 -0.9269137 -0.74422723 -0.45176232
0.22347446 -0.549178 0.008498314 -0.18589284 0.049921423 0.09204939 -0.7466797 0.028850457
-0.332604 -0.45618874 0.4051792 0.20531763 0.6457468 -0.04288105 -0.44303352 -0.4745578
0.27013668 -0.088803135 -0.14901341 -1.350999 0.23184158 -0.47282466 -0.18111755 0.29675382
0.21060501 -0.78535837 0.30919012 0.34824622 -0.46682036 -0.5981998 0.14464654 0.43276885
0.2338418 -0.7851775 -0.51492447 -1.3765839 0.17199732 0.30420485 0.1601 -0.071873374
0.11083111 -0.42694342 -0.20835836 -0.37857702 -0.1700295 0.5945186 -0.74175555 -0.21379776
-0.44053608 -0.6532328 0.28239796 -0.42501983 0.15362613 -1.383072 -0.008554677 -0.0027858606
-0.3962498 -0.26870954 0.26444572 -0.24137513 -0.12143576 -0.035208322 0.0027189113 -0.13311027
