machine learning/face_varification/param/conv_2.weight.npy (npy, 331904 bytes, 1 tensors)

array f4 [192, 48, 3, 3]
0	0xbd630a14	-0.055429533
1	0x3c5310bf	0.012882411
2	0x3d0d3f7a	0.034484364
3	0xbd92433a	-0.07141729
4	0x3dc31dab	0.09527143
5	0x3c9c9423	0.019113606
6	0xbdc0926b	-0.09402927
7	0x3d0e8708	0.034796745
8	0x3d5f65cf	0.05454045
9	0x3e2e739b	0.17036287
10	0x3c7ef34d	0.015560937
11	0xbdf6e85f	-0.1205604
12	0x3e098797	0.1343063
13	0xbcada77d	-0.021198029
14	0xbdc35889	-0.09538371
15	0x3e1c360d	0.15254994
16	0xbdc83b55	-0.09776942
17	0xbdc7d47d	-0.09757326
18	0x3c3290a9	0.0108987475
19	0xbd584161	-0.052796725
20	0x3c2fcc5c	0.010729875
21	0xbd64c179	-0.055848572
22	0xbd0d0a12	-0.034433432
23	0x3d486344	0.048922792
24	0xbd0320df	-0.03201377
25	0xbc97ab9c	-0.018514447
26	0x3d269215	0.04066666
27	0xbdccce87	-0.100003295
28	0xbcca3b53	-0.024686491
29	0x3d7e4fd2	0.06208784
30	0xbdf891d4	-0.121371895
31	0x3d37a3ac	0.044833824
32	0x3de1c66f	0.11024176
33	0xbd49ccf7	-0.049267735
34	0x3d2f7729	0.04283825
35	0x3d335a7d	0.04378747
36	0x3d089cf8	0.033352822
37	0xbcbaadfe	-0.022788044
38	0x3d478d32	0.04871864
39	0x3ced8351	0.02899328
40	0xbd494684	-0.049139515
41	0xbd049673	-0.032370042
42	0x3d3d45e3	0.046209227
43	0x3d024cb3	0.031811427
44	0xbca120ab	-0.019668898
45	0xbdfbe683	-0.12299826
46	0x3d3c11b6	0.045915328
47	0x3c9cb837	0.01913081
48	0xbdd4a39c	-0.103827685
49	0x3d8ab602	0.067729965
50	0xbb709f21	-0.0036715942
51	0xb6df7c20	-6.660368e-06
52	0x3d77167c	0.060324177
53	0x3cb4ac03	0.022054678
54	0xbcd8a3cf	-0.026445298
55	0x3bc18277	0.005905445
56	0x3d86eba4	0.06587914
57	0xbd38671f	-0.04502022
58	0x3cc665aa	0.0242184
59	0x3d2d48a0	0.04230559
60	0xbdeb6204	-0.11493304
61	0x3cdc5650	0.026896626
62	0x3db7d30f	0.08975803
63	0xbd46a524	-0.048497334
64	0x3c94f667	0.0181839
65	0x3cdd8b5d	0.027043993
66	0x3b77f47a	0.0037834928
67	0x3d811f29	0.063047715
68	0xbd441315	-0.04786976
69	0x3c50e9a9	0.012751021
70	0x3d030a5c	0.0319923
71	0xbb428f37	-0.0029687413
72	0xbd3f7209	-0.04673961
73	0xbc89a05b	-0.016800096
74	0x3d03c021	0.03216565
75	0xbd96f63a	-0.07371183
76	0x3d5e910e	0.054337554
77	0x3d4518db	0.048119407
78	0xbbd092e5	-0.0063651674
79	0x3d13e63d	0.036108244
80	0x3c32b8c2	0.0109083075
81	0x3b956c27	0.004560012
82	0xbcad9c2c	-0.021192633
83	0xbd2d96d4	-0.04238017
84	0xbc054991	-0.008135215
85	0x3cb8ee9f	0.02257472
86	0xba903741	-0.0011002795
87	0x3d7d9f6a	0.061919607
88	0x3c924b7f	0.017858265
89	0xbcbe82af	-0.023255674
90	0xbab322a0	-0.0013666935
91	0x3b6e6de9	0.003638143
92	0xbc4b00e0	-0.012390345
93	0x3dd81b4c	0.105520815
94	0xbdb7b62f	-0.08970296
95	0xbddd5f7e	-0.10809229
96	0x3cc1f305	0.023675451
97	0xbddbbe57	-0.10729664
98	0xbd6325a4	-0.05545582
99	0xbd5058ab	-0.05086581
100	0x3c2a51ee	0.01039551
101	0x3d7b1424	0.061298504
102	0xbd9f03f7	-0.07764428
103	0x3cfb42d0	0.030671507
104	0x3d5c699f	0.053811666
105	0xbdef6ab9	-0.116902776
106	0xbcd2f6fa	-0.025752533
107	0x3d7ae254	0.061251
108	0xbdb518f2	-0.088426486
109	0xba904a75	-0.0011008518
110	0x3d581383	0.052752983
111	0xbde0b86c	-0.10972676
112	0xbcad5bcb	-0.021161934
113	0x3da7309d	0.08163569
114	0xbd8bd271	-0.06827248
115	0x3d4cccba	0.04999993
116	0x3da3fcc8	0.080071986
117	0xbd222af0	-0.03959173
118	0xbca9a161	-0.020706834
119	0x3dcadcfd	0.099054314
120	0xbe068533	-0.13136749
121	0x3ceeaf3e	0.029136296
122	0x3d8244c9	0.06360776
123	0xbd8de784	-0.06928924
124	0x3ce30afb	0.027715197
125	0x3d51e9c6	0.051248334
126	0x3dd6b682	0.10484029
127	0x3c8e309b	0.017357161
128	0x3ca67788	0.020320669
129	0x3e404450	0.18776059
130	0xbc94aeff	-0.01814985
131	0xbd38c97f	-0.045114037
132	0x3ccc2dbe	0.024924155
133	0xbda40469	-0.08008654
134	0xbd4fd558	-0.05074057
135	0xbdd77e03	-0.10522082
136	0xbc4412c5	-0.011967366
137	0x3d442f81	0.047896866
138	0xbe15cb4e	-0.14628336
139	0x3c2aeb1d	0.010432032
140	0x3c577f6b	0.013152937
141	0xbe09a410	-0.13441491
142	0x3d8cb95a	0.068712905
143	0x3da03bce	0.07823907
144	0x3dc5e4a1	0.09662748
145	0xbc72768d	-0.0147987725
146	0xbce8ee32	-0.028433893
147	0x3da62afa	0.08113666
148	0xbd58d4bf	-0.052937265
149	0xbcf3ecd1	-0.029776009
150	0x3c94f570	0.01818344
151	0xbd7926cd	-0.06082802
152	0xbab61e0e	-0.0013894455
153	0xbd312f99	-0.043258283
154	0x3c1d74ef	0.009610399
155	0x3deacb6f	0.11464583
156	0xbe1f9e9c	-0.15587848
157	0x3b00650e	0.0019591483
158	0x3db9c872	0.09071435
159	0xbe15e13f	-0.14636706
160	0x3da608a7	0.08107119
161	0x3e1eaadb	0.15494864
162	0xbd282dfa	-0.04105947
163	0x3ca5be05	0.02023221
164	0x3bfb3aa5	0.007666903
165	0xbdb5fbad	-0.08885894
166	0xbd1c8535	-0.038212974
167	0x3d5beae1	0.053690795
168	0xbe5671d8	-0.20941865
169	0xbd1e4407	-0.038639095
170	0x3d7813ec	0.060565874
171	0xbc94561c	-0.018107466
172	0x3cdb4f78	0.026771292
173	0xbd1641b7	-0.036683764
174	0x3d38167c	0.044943318
175	0x3b21afa6	0.0024671345
176	0xba832041	-0.0010004119
177	0xbbf998e4	-0.007617103
178	0x3c9169e4	0.017750688
179	0x3c36d64a	0.011159489
180	0xbdb9c88e	-0.09071456
181	0xbd25da36	-0.040491305
182	0x3dc8bfa1	0.09802175
183	0xbc0f96ea	-0.008764008
184	0x3cd31734	0.0257679
185	0x3da324dd	0.079660155
186	0xbd01d278	-0.03169486
187	0x3d97c163	0.074099325
188	0x3cda16bd	0.02662217
189	0x3dcfb22e	0.10141407
190	0x3d5df075	0.054184396
191	0xbdae5d1e	-0.085138544
192	0x3e36760d	0.1781847
193	0x3d7b6dea	0.06138412
194	0xbd607f21	-0.05480874
195	0x3d83c7c6	0.06434588
196	0xbd756cfa	-0.05991838
197	0xbdad15cc	-0.08451423
198	0x3c6e7f01	0.014556647
199	0x3d318669	0.043341074
200	0x3d021a72	0.0317635
201	0xbd05d841	-0.03267694
202	0x3b12a0cf	0.0022373681
203	0x3ce50841	0.027958037
204	0xbdaab724	-0.083357126
205	0x3d983fa3	0.07434013
206	0xbb2400fe	-0.0025025005
207	0xbdc9d500	-0.0985508
208	0x3d010013	0.03149421
209	0x3d3f262d	0.046667267
210	0xbded420e	-0.115848646
211	0x3d40aa34	0.04703732
212	0x3d7a9a33	0.061182212
213	0xbd576b3f	-0.052592512
214	0x3d84cf48	0.06484848
215	0x3bf4018f	0.007446475
216	0x3d90bc2e	0.070671424
217	0xbc60a061	-0.013710112
218	0xbe11eca5	-0.14250429
219	0x3e2e2d6a	0.17009512
220	0xbd84431b	-0.06458112
221	0xbd9fbed7	-0.07800072
222	0x3e666321	0.22498752
223	0xbd99a5c4	-0.075023204
224	0xbcf75c2e	-0.030195322
225	0x3cf92405	0.030412683
226	0xbc396fc0	-0.011318147
227	0xbd13055c	-0.035893783
228	0xbd1a385c	-0.037651405
229	0x3cb9d415	0.022684136
230	0x3c9ca2fa	0.019120682
231	0xbd52b0a1	-0.051437978
232	0x3c305183	0.010761621
233	0x3d959810	0.07304394
234	0x3d4acc33	0.049511146
235	0xbd1687ea	-0.03675071
236	0x3c3479e5	0.01101539
237	0x3d9c516b	0.07632717
238	0xbd5d031b	-0.05395804
239	0xbcbb77de	-0.022884306
240	0x3e02716b	0.12738578
241	0xbd65221e	-0.05594074
242	0xbcb0b340	-0.021569848
243	0xbc809119	-0.015694188
244	0xbcb9f452	-0.022699509
245	0x3cb7a33f	0.022416709
246	0xbcc7516f	-0.024330823
247	0x3c8fc35f	0.017549215
248	0x3d3c563c	0.045980677
249	0xbde5451e	-0.11194824
250	0x3c884e77	0.016638977
251	0x3d0d2d99	0.034467313
252	0xbd6d7cf5	-0.057980496
253	0xbd174f50	-0.036940873
254	0x3c93ea8a	0.018056173
255	0xbd9548b6	-0.07289259
