machine learning/face_varification/param/mfm_1.filter.weight.npy (npy, 18560 bytes, 1 tensors)

array f4 [96, 48, 1, 1]
000000 02 66 c2 3c e1 6e a1 3c 32 10 d0 bc f9 18 63 bd
       0.023730282 0.019706191 -0.025398348 -0.055443738
000010 c2 5c 9a bc f2 c6 d9 bd 60 43 f0 bc 06 b4 e8 3c
       -0.018843058 -0.10633649 -0.029329002 0.028406154
000020 47 9b 2e b9 19 0f 93 3d 50 ae 9b 3d f2 27 d7 3c
       -0.00016651778 0.07180614 0.07601607 0.026264165
000030 57 49 e7 3c 21 4f 3c bd a6 c2 56 3d c5 bf 52 bd
       0.028233213 -0.0459739 0.052431725 -0.051452417
000040 0c 3d a3 3d 4a 03 be 3b ed ab 6e bd 4c aa b3 3d
       0.07970628 0.005798732 -0.05826943 0.08772716
000050 6e 83 80 ba e6 51 a8 3d 73 80 b7 bc 20 04 26 bc
       -0.0009804794 0.08218746 -0.022400117 -0.010132819
000060 f6 ff 1c 3d 40 c1 64 bc 50 1c 4e bb 3f ee 20 3c
       0.03833004 -0.01396209 -0.003144998 0.009822427
000070 e5 02 8b bc e9 d8 d3 bc a5 3b 78 bd f1 e5 2a 3d
       -0.016969154 -0.025860267 -0.060603756 0.041723195
000080 c1 17 32 3d a0 d5 16 3c a8 70 06 bc 74 9a c2 3d
       0.043479685 0.009206206 -0.00820557 0.09502116
000090 9c 74 62 bd 5f 4b 24 3d 2f b4 33 3d a8 9a 9e 3d
       -0.05528699 0.040110942 0.04387301 0.07744342
0000a0 00 31 33 3d 46 82 7e 3d 91 03 b0 3d 52 d0 7b 3d
       0.043747902 0.062135957 0.0859443 0.061477967
0000b0 b6 28 f8 3c 25 41 80 3b dc f3 1e 3e 74 94 e5 3d
       0.03029285 0.003914016 0.15522712 0.11209956
0000c0 e2 f1 8f 3e 95 05 25 bd b8 b5 be 3b ee 91 ae 3e
       0.2811423 -0.040288527 0.0058200024 0.3409571
0000d0 fc 00 0b bf 06 4b 54 3e b7 28 ed bd 67 c2 5e 3e
       -0.5429838 0.20731744 -0.11580031 0.21753846
0000e0 ff 5e 1a 3e 41 6e ff 3e 8c d8 96 be 4b 5a 1d be
       0.150753 0.49888805 -0.29462087 -0.15366475
0000f0 d9 48 a6 be ab f2 cc 3d bf 29 9a bd 22 0a cf 3d
       -0.32477453 0.10007223 -0.07527494 0.101093546
000100 78 23 e7 bd 61 4e 12 bd b3 42 cd 3d 87 c9 bc 3d
       -0.11286062 -0.03571928 0.100224875 0.09218126
000110 a8 d6 0f bd 53 d7 9c be a2 e1 85 3e 54 ef 46 3e
       -0.03511682 -0.3063303 0.26148707 0.19427234
000120 37 ff 26 be 14 4b b0 bd ff c3 21 be 17 38 e1 bd
       -0.16308294 -0.0860807 -0.15797423 -0.109970264
000130 aa 78 06 3e 3e 99 07 bc c1 04 f1 3d fe e5 59 3e
       0.13131967 -0.008276282 0.11768485 0.21279141
000140 a5 aa af bd 09 1f b0 3e 64 14 53 3e e8 ba eb 3d
       -0.0857747 0.34398678 0.20613247 0.11510259
000150 e8 9c e1 bd b0 46 fb bd 95 51 ab 3e be 03 84 be
       -0.110162556 -0.12269342 0.3346068 -0.25784105
000160 40 2a 56 bc 16 d9 06 3e 00 e0 92 be 2b 1c 68 be
       -0.013071597 0.13168749 -0.28686523 -0.22666995
000170 3e a8 5c 3e be 20 c9 3c 59 ae 8c be 51 5a 92 3c
       0.21548554 0.024551746 -0.27476767 0.017865332
000180 e6 fe fe 3d 5d 46 89 3d 68 21 02 3e d0 5f 25 3e
       0.12450962 0.06702874 0.12708056 0.16149831
000190 3e 58 af 3d 06 b7 dc 3c 72 a4 5d 3e 69 16 fb 3c
       0.08561753 0.026942741 0.21644762 0.030650334
0001a0 2c 20 bb bd 5c 98 69 bd c1 39 0c 3d 91 73 d6 3d
       -0.09136996 -0.057030067 0.034234766 0.10471261
0001b0 19 50 41 bd e9 f5 30 3d 1c b7 1a 3e 67 6f 97 bd
       -0.047195528 0.04320327 0.15108913 -0.07394295
0001c0 0b f0 b3 3d 2a d9 77 bb e4 cd f8 3d de ce 9c 3d
       0.08786019 -0.003781865 0.121486455 0.07656644
0001d0 24 57 1d 3d eb 95 28 3c 28 4d d1 3d 38 5f 31 3e
       0.038413182 0.0102896495 0.102197945 0.1732148
0001e0 89 ba 52 3d 97 56 69 3e a8 9c d8 bd dc 39 74 bb
       0.051447425 0.22786938 -0.10576755 -0.0037265932
0001f0 bd b0 99 3c 8f 21 75 bc 51 3a e9 3d 6d 52 b1 3a
       0.018761033 -0.014961614 0.11388076 0.0013528593
000200 6b 71 70 bd 03 18 81 bd d5 9a 7a bd ec 8c 8d 3d
       -0.058701914 -0.06303408 -0.061182816 0.06911644
000210 8c 1b 39 3e f8 f9 9b 3d 5a 62 32 3e 9c 81 1c be
       0.18076915 0.07616037 0.1742033 -0.15283817
000220 3a ae 35 3e ca 7f 50 bc 62 15 16 3c 23 90 f1 3d
       0.17742243 -0.01272578 0.0091603715 0.1179507
000230 88 e4 22 3e 46 4e 49 3e 61 82 99 3d 70 e8 8f 3d
       0.1590749 0.19658765 0.07495571 0.07026756
000240 b5 c8 fa be e3 48 dc bd 4c 0f e5 bd 16 88 25 be
       -0.48981252 -0.107560895 -0.11184558 -0.16165194
000250 3a a3 89 be 4d 82 1c be fd 30 01 bf 66 69 09 bf
       -0.26882344 -0.15284081 -0.50465375 -0.5367645
000260 f6 7d 7e bc 81 64 54 be 90 fa fb bd ad 71 82 be
       -0.015532961 -0.20741464 -0.123036504 -0.25477353
000270 ff 10 b3 be 97 79 90 be 21 c6 03 bf 33 57 c2 bd
       -0.34973904 -0.28217766 -0.51474196 -0.09489288
000280 0c c3 a6 bd 9d 61 b7 3c 1c 65 1a be 01 bf b7 3d
       -0.08142671 0.022385413 -0.15077633 0.08971978
000290 c1 dc 8e 3d 0e db 61 3e 06 4a e8 be 15 61 66 be
       0.06975699 0.22056219 -0.45368975 -0.22497971
0002a0 38 3a ed 3e e0 d9 b3 bc 83 1a 1c be a6 b3 99 3e
       0.4633348 -0.021954477 -0.15244488 0.30019873
0002b0 7f b2 ea bd f8 23 09 be 5f 20 14 3e 1a a0 08 bf
       -0.11459827 -0.13392627 0.14465474 -0.53369296
0002c0 b3 74 ad bd 47 c7 0f be b0 ab ba be d2 8f 5f be
       -0.08469524 -0.14040862 -0.36459112 -0.21832207
0002d0 af 24 81 be 2a 70 79 3e 82 ae f9 be 55 78 17 3e
       -0.252233 0.24359193 -0.4876595 0.14791997
0002e0 37 d2 0f 3d 83 a1 1f 3e bc 09 23 3d 4f ca b1 3e
       0.035112586 0.15588956 0.039804205 0.34724662
0002f0 4c 2d 70 3e 51 83 17 bf b2 ba 7b 3e b8 c0 6a 3d
       0.2345478 -0.5918475 0.24582937 0.057312697
000300 fd bf cc bd 00 11 27 bd 5e b3 6c be 86 d4 90 be
       -0.09997556 -0.040787697 -0.23115298 -0.28287143
000310 61 f0 c3 3d ad e4 88 3d 90 51 10 be de 00 dc 3d
       0.09567333 0.066842414 -0.14093614 0.10742353
000320 39 80 3c bf d2 15 76 bd 03 88 0b be b1 84 76 3d
       -0.7363315 -0.060079403 -0.13626103 0.060185138
000330 4f 41 63 3e 9a 23 b4 bd c7 44 49 3e 27 10 14 bd
       0.22192882 -0.08795853 0.19655143 -0.036148217
000340 77 62 fb be 73 52 61 be 82 80 17 be ff a7 cb be
       -0.4909856 -0.22004108 -0.14795116 -0.39776608
000350 59 d8 0d bc 96 df ca bd d0 6d ab be fa b1 16 bf
       -0.008657538 -0.09905927 -0.33482218 -0.5886532
000360 55 ca f2 bc 8e 52 27 bd 36 93 e5 bd 17 30 14 bf
       -0.029637495 -0.040850215 -0.11209719 -0.5788588
000370 9f 34 28 bf 9f 2b 85 bd 9f f3 0f bd 98 96 c8 3d
       -0.65705293 -0.06502461 -0.035144445 0.097943485
000380 9c a8 05 be 6c 1f 1a bd f3 67 fb be 1a 1c a7 3d
       -0.130526 -0.037627622 -0.49102744 0.08159657
000390 24 87 4f bd 81 2c 11 bf 1b 39 40 bd 3e 5a 00 be
       -0.05066599 -0.5670853 -0.04692946 -0.12534425
0003a0 3a 1a 41 be 46 e2 da be 1f d8 51 bd bd 71 8b 3d
       -0.18857661 -0.42750758 -0.0512315 0.06808803
0003b0 7c dd cf be 4f e1 99 be 6d c9 2f bd 47 12 af be
       -0.40598667 -0.3005471 -0.042916704 -0.34193632
0003c0 80 de 6f 3e 6c 9b 84 3d ed 7c ac bc dd b5 82 be
       0.23424721 0.06474957 -0.021055663 -0.25529376
0003d0 58 a1 49 be 41 45 69 3d 73 7e ae be 07 54 02 3d
       -0.19690454 0.05695081 -0.34080848 0.031818416
0003e0 78 7a 5a 3d 4f b5 d4 3d b6 16 87 be 20 ed c4 bd
       0.05333945 0.10386144 -0.26384515 -0.096155405
0003f0 e1 32 db be c5 9e 7a bc 6e 40 04 bf 94 4e c3 bd
       -0.42812255 -0.015296643 -0.5166081 -0.09536472
