machine learning/face_varification/param/mfm_4.weight.npy (npy, 131200 bytes, 1 tensors)

array f4 [256, 128, 1, 1]
00000000: a9f9 153e 0ef1 acbd 5a8b a03d a816 14be
00000010: ae90 2dbe 0a70 11bd e1ae ac3d f1eb 07be
00000020: 0369 0fbd 03e4 943d 589c ab3e 6722 40bd
00000030: 2a69 1ebe dc8f 97bc 22bb 1ebe d152 613d
00000040: f1d9 f23d 57aa 46be c2bb cdbd 007e 0cbe
00000050: c381 52be cbd9 e2bd 2290 133e 2685 da3c
00000060: c43e 46bd 0a42 75be ee4d 51bd 2615 a8bd
00000070: b5fa aebd 872d d7bd 9a53 7d3e bf62 14be
00000080: 0bf7 f1bd 86be e4bd e2a3 543e 8f65 63bd
00000090: 4e52 b73d d48a 1fbe 2307 793d 4ecb 523c
000000a0: 13ac b8bc 63d0 b2bb ad91 a3be 6dd0 683d
000000b0: 0f19 b9bd 7f10 1f3e aff6 193d f231 5abe
000000c0: e50f 6fbe 9826 b5bd 001c 1dbe 29a1 02bd
000000d0: 6646 c1bd afb1 d83c f71a b3bd be77 00be
000000e0: 2cdc b13d 4590 3abe eef4 b9be 27a4 383e
000000f0: 3a22 213d d74a dd3c c732 de3d a2d8 d8bc
00000100: d001 5dbe 9093 dd3c c26f 08bd abb8 91bd
00000110: 3b73 a93e 8512 413d 47b5 85be 18a7 6f3e
00000120: dadb a7bd 59fc 08bd 3629 23be 3630 97bd
00000130: 0958 05be b20a 94bb edf4 2dbe 3d43 ebbd
00000140: c46a 32bd bd95 bebd 06f8 2c3c a7d1 183e
00000150: ae2e 9c3d bd3b 9cbd 63fd 2ebc 0090 16be
00000160: 2952 443e 0647 5dbe 9b6d f2bc c787 423d
00000170: e443 9e3d e9b4 7ebd 3861 ecbd e246 d0bc
00000180: 17c5 20bc c89a 27be 9d43 cd3d fad2 b13d
00000190: 2ccf bebd c6fb 283d aa71 d7bc 3793 f7bc
000001a0: 56dd ac3b 6fee 7a3d 59fa 4b3d 05c8 27bd
000001b0: 4f7b 063e a410 ef3a 93e2 39bd 9366 813d
000001c0: a507 1cbc fd02 123d 4d34 38be c899 40be
000001d0: 20c9 07be 3721 0a3c 5de9 4d3d 453d fbbd
000001e0: e80d 7ebe f72e 8f3d edb8 a0be 1269 6f3e
000001f0: e423 aebd de17 bebd 1fa3 6cbe d6c0 5b3d
00000200: dcc4 8a3d 1385 fa3d a479 98bd 4033 3c3d
00000210: a6aa e13c 4042 903b 65f5 dc3d fa29 253e
00000220: 2367 4bbe 9261 213d b29e f4bd ebe3 56bd
00000230: b78f 0cbe cc52 38bd 99a7 f33c 9515 03bd
00000240: 9964 58be 41c7 8cbd 1e9b c6bc 8bd6 90bb
00000250: 1b17 20be 088b 92bd 0d4d 62be 28dd 5d3d
00000260: e426 063e 22d3 a8bd 94a9 f5bd b2bb fabd
00000270: e368 2abe ea8d ad3d 2052 523b 553a 54bd
00000280: eca5 33be a932 68bd 8a30 1e3e 924d 04be
00000290: a081 1c3d 7fca fcbc e027 0c3c 1fee 8ebd
000002a0: afde fdbc c637 6c3d f8cf 04be 7d78 19be
000002b0: 6196 1c3d 3837 d6bd c095 393c cbc4 d23d
000002c0: ca56 cdbd a8f4 e0bc 2ed9 45bd c3e8 8f3d
000002d0: 261e 153e eb50 bb3d 26ae 82bb 8e22 27be
000002e0: 6ba6 9abd 7d7c 703e fe1a a03d dbff 6b3d
000002f0: 9879 acbd d0a7 803c 888c dbbc 9c4d 2b3d
00000300: af8f 403c d984 8e3e 4493 aabd 9f67 00be
00000310: fcf3 7d3e 23e2 193c 1e2c 303c 7ada 62be
00000320: c901 cd3c 1a3d cebd 9b4e 163d 001b fc3d
00000330: d04a 61bc f512 d13d e7c0 173e cbf6 5fbc
00000340: bf0a e03d 4e3c 9bbc d2f1 7cbd dae8 d93c
00000350: 1eae 5a3e 0cff 19bd ce3d ef3b 67f4 01be
00000360: b7ce 2abd a18c a23d 7b4e aabc 6cd2 683e
00000370: 51ab ab3c 6764 633c d06a 8abb 0585 0bbd
00000380: 4571 4e3d 96a2 933d d8f1 b4bd 5526 a6bb
00000390: 6575 48bd f6aa abbd a164 8dbd 6c20 5fbe
000003a0: f4cd 0c3e 6edf 09be 2b1c b8bb 3d4a 16be
000003b0: 5da6 6ebd a02c 813d 9187 8cbd 1ad9 0c3e
000003c0: 2db1 26bb 98f8 b73d 5151 c73b 17f9 133d
000003d0: 03ea 90be 3e91 79bc ad25 653c 645e 4fbd
000003e0: 27fa bd3d 347a 5a3d 7964 5b3d 4610 28bd
000003f0: 0503 cfbc 78ce bc3c e7d7 5cbe 6007 903c
0.14646019 -0.08444415 0.07839079 -0.14461768 -0.16949722 -0.03550724 0.08431793 -0.13273598
-0.035012256 0.07270052 0.33517718 -0.04690781 -0.15469804 -0.018501215 -0.15501073 0.05501062
0.11857975 -0.19400917 -0.100455776 -0.1371994 -0.20557313 -0.11076697 0.14410451 0.026674818
-0.0483997 -0.23950973 -0.05109971 -0.08207159 -0.08543912 -0.105067305 0.24738923 -0.14490794
-0.11814698 -0.11169152 0.20765641 -0.055516776 0.08951245 -0.15580302 0.06079782 0.012865854
-0.022542989 -0.0054569705 -0.3194708 0.056839395 -0.09037983 0.15533637 0.03758877 -0.21308115
-0.23345907 -0.08845252 -0.15342712 -0.031891976 -0.094372556 0.026451914 -0.087453775 -0.12545678
0.086845726 -0.18219097 -0.3631968 0.18031369 0.03933928 0.027013225 0.10849529 -0.026470486
-0.21582723 0.027047902 -0.033309706 -0.07115301 0.33095726 0.047136802 -0.26114866 0.23403585
-0.0819623 -0.033443782 -0.1593369 -0.073822424 -0.13021864 -0.0045178765 -0.16987963 -0.11487434
-0.04355885 -0.09305904 0.01055718 0.14923726 0.07626091 -0.07628582 -0.010680529 -0.14703369
0.19171967 -0.21609125 -0.02959328 0.04749277 0.07727793 -0.062184248 -0.115419805 -0.025424425
-0.009812615 -0.16367638 0.10022662 0.08682819 -0.09316859 0.041255735 -0.026299316 -0.030221565
0.0052754087 0.061262544 0.049799297 -0.040962238 0.13132976 0.0018239212 -0.045382094 0.063183926
-0.009523307 0.03564738 -0.17988701 -0.18808663 -0.13260317 0.008430771 0.05027138 -0.122675456
-0.24809992 0.0699138 -0.31391087 0.23379925 -0.08502939 -0.09281896 -0.23109101 0.0536507
0.06775829 0.12232413 -0.07445076 0.045947313 0.027547192 0.004402429 0.10788993 0.16129294
-0.19863562 0.03939969 -0.11944331 -0.052463453 -0.13726698 -0.045000836 0.029743003 -0.032003004
-0.21132125 -0.06873942 -0.024243888 -0.0044201068 -0.15633814 -0.07155424 -0.22099705 0.05416599
0.13100773 -0.082433954 -0.11995235 -0.12242831 -0.16641574 0.084743336 0.0032092407 -0.051813442
-0.17543763 -0.05668894 0.15448204 -0.12920216 0.038209558 -0.030858276 0.008554429 -0.06979012
-0.030989973 0.057670377 -0.12969959 -0.14987369 0.03822935 -0.10459751 0.011327207 0.102914415
-0.10026319 -0.027460411 -0.04830282 0.07026818 0.14562282 0.09146293 -0.0039880453 -0.16321775
-0.07551273 0.23484989 0.07817648 0.05761705 -0.0842163 0.01570502 -0.026800409 0.04182206
0.011753007 0.2783573 -0.0832887 -0.12539528 0.24800104 0.009392294 0.010752706 -0.22153655
0.025025265 -0.10070248 0.036696058 0.12309837 -0.013750747 0.10208694 0.1481968 -0.01366968
0.1093955 -0.018949654 -0.061754055 0.02660029 0.21355483 -0.037596747 0.007301069 -0.12690888
-0.041701045 0.07936979 -0.020789376 0.2273652 0.020955713 0.013878918 -0.004224159 -0.034062404
0.05040099 0.07208745 -0.088351905 -0.0050704875 -0.04894008 -0.083822176 -0.06903959 -0.21789712
0.1375044 -0.13464138 -0.0056185923 -0.14676757 -0.058264125 0.0630734 -0.06861795 0.13754693
-0.0025435195 0.08982962 0.0060826917 0.036126222 -0.28303537 -0.015232382 0.013986033 -0.050627127
0.092762284 0.0533392 0.053562615 -0.041031145 -0.025269995 0.02304767 -0.21566735 0.017581642
