machine learning/face_varification/param/mfm_1.bias.npy (npy, 512 bytes, 1 tensors)

array f4 [96]
000000 20 6c 20 bf d1 bd 62 be 3d d8 8e bd cc 01 ba ba
       -0.62664986 -0.22142722 -0.06974838 -0.0014191209
000010 1b ae 2b be b6 ff 73 3c 04 c4 03 3c cd 5f 04 3e
       -0.16765635 0.014892509 0.008042339 0.1292717
000020 90 e0 29 bf ce ce 0f bf 72 8a 80 be 58 38 23 bf
       -0.6635828 -0.56174934 -0.25105625 -0.6375785
000030 21 fd 74 3e 28 1a 2a 3b 8c 80 44 bd a7 0c 6c be
       0.23924686 0.0025955532 -0.047974154 -0.23051701
000040 98 84 30 be 65 7d 1f bf db 57 1e bf 03 b1 af be
       -0.1723808 -0.6230071 -0.61852807 -0.34314737
000050 07 8f 87 be 70 ca 5d bf f0 28 5f bd 45 23 7c 3e
       -0.2647631 -0.8663702 -0.0544824 0.2462283
000060 9b bf f4 be 6d 03 21 bf 0b 22 24 bf 8a b0 f1 be
       -0.47802433 -0.6289585 -0.64114445 -0.47205
000070 d4 a3 d5 bd 31 7f e6 3d 78 e5 60 be 41 fe 90 be
       -0.10431638 0.112547286 -0.21962535 -0.2831898
000080 b4 3e 57 bb 39 91 5b 3e 1b d4 1c bf c8 80 94 be
       -0.003284377 0.21442117 -0.6126115 -0.29004502
000090 55 ce 17 be 6e 89 ab bd 88 7b cf bf d7 f4 45 be
       -0.14824803 -0.08375822 -1.6209574 -0.1933168
0000a0 6a e1 dd 3d fb 77 dc 3c 6f fa 7d be f2 0b 55 be
       0.1083401 0.02691268 -0.24802564 -0.20805338
0000b0 ef 94 da bd c5 0e a3 bd 6f fc e6 be f6 03 b6 be
       -0.10672938 -0.079618014 -0.45114467 -0.35549897
0000c0 10 ca c2 3c ab ce 96 bf 01 84 87 bf 5b 6a 2a bf
       0.023777992 -1.178182 -1.0587159 -0.66568536
0000d0 a5 50 78 bf a1 01 8c be 6f 03 5f bf c0 70 5a bf
       -0.96998054 -0.27344993 -0.87114614 -0.8532829
0000e0 d5 e8 0f be 2b cc a1 3c d5 a0 d6 be b3 12 e6 bd
       -0.14053662 0.019750675 -0.4191958 -0.11234035
0000f0 5b 61 fc be f7 41 8c bf 0c 66 57 bf d4 9b 9a be
       -0.49293026 -1.0957631 -0.84140086 -0.30197012
000100 3d c9 35 bf 18 47 58 be b6 4e 2a be 0d db c2 3d
       -0.7101019 -0.2112087 -0.16631588 0.09514437
000110 4c 45 9a be cd 08 50 be 98 cf 36 bf 9a 20 b1 be
       -0.30130994 -0.20315857 -0.7141051 -0.34595186
000120 c7 02 d4 3e af 13 f7 3b 4f 43 eb 3d 6c e4 b3 bc
       0.4140837 0.0075401883 0.114874475 -0.021959506
000130 e5 84 11 bf 81 2b 35 bf 0b 83 4e be 41 c4 b5 be
       -0.56843406 -0.70769507 -0.20167176 -0.35501292
000140 ba 7a e8 bf 58 31 e8 be 5c c7 20 bd 5d c4 3d 3e
       -1.8162453 -0.45350146 -0.039252624 0.18531938
000150 c1 1b bf bf 0f 06 8b be 57 18 74 be 14 c3 05 bf
       -1.4930345 -0.2715306 -0.2383741 -0.5225079
000160 e3 ef f6 be a2 dd 04 bf a8 d7 77 be 6e f1 f3 be
       -0.48229894 -0.51900685 -0.2420336 -0.47645134
000170 4a 96 b5 be a2 29 b2 be db ef 23 be a7 42 c2 be
       -0.35466224 -0.34797388 -0.16009466 -0.37941477
