machine learning/face_varification/param/mfm_2.weight.npy (npy, 73856 bytes, 1 tensors)

array f4 [192, 96, 1, 1]
0	0xbcf1c1e5	-0.029511401
1	0x3d5f3d29	0.054501686
2	0x3d5b56b6	0.05354949
3	0x3dcc841c	0.09986135
4	0xbe5f3e96	-0.21801218
5	0x3d323827	0.043510582
6	0xbb5e2a89	-0.0033899865
7	0xbe1806c2	-0.14846328
8	0x3d3324f4	0.043736413
9	0xbd952c89	-0.07283885
10	0xbe024024	-0.1271978
11	0x3d2667bc	0.040626273
12	0x3cda2172	0.026627276
13	0xbd8d92c0	-0.06912756
14	0x3d7c4f6c	0.06159918
15	0x3dcce850	0.100052476
16	0x3d8933c8	0.066993296
17	0xb910ed63	-0.00013821344
18	0x3d852848	0.06501824
19	0xbc189b81	-0.009314419
20	0x3da8761b	0.08225652
21	0xbde5e776	-0.11225788
22	0x3d4c1c6a	0.049831785
23	0xbc9cf27c	-0.019158594
24	0x3caa7f20	0.020812571
25	0xbd9550eb	-0.072908245
26	0x3b908169	0.004409958
27	0x3d0e50a5	0.034744877
28	0xbe24494a	-0.16043583
29	0x3da90671	0.08253182
30	0x3d8947b6	0.06703131
31	0xbda8119c	-0.08206484
32	0x3d03673c	0.032080874
33	0xbc4ae74f	-0.01238425
34	0xbb7c7b5b	-0.0038525674
35	0x3da01b71	0.07817734
36	0x3e4932bb	0.19648258
37	0x3e146668	0.1449219
38	0x3d88b079	0.066742845
39	0xbd9612be	-0.073277935
40	0xbde5720e	-0.11203395
41	0x3d507d9f	0.05090105
42	0x3d9d20a4	0.07672241
43	0xbd3461cd	-0.044038583
44	0xbdd53b04	-0.10411647
45	0x3d46cfb7	0.048537936
46	0xbd0f9b6c	-0.03506033
47	0x3d9a715f	0.07541155
48	0x3e327ff5	0.17431624
49	0xbd038fb9	-0.032119486
50	0x3c886d82	0.01665378
51	0xbd1eaa77	-0.038736787
52	0xbda3ff83	-0.08007719
53	0xbdc3c504	-0.09559062
54	0xbcaf4889	-0.021396892
55	0xbdea8f06	-0.11453061
56	0xbda69354	-0.08133569
57	0xbe19a068	-0.15002596
58	0xbc8ac33c	-0.016938798
59	0xbd59e7e7	-0.053199675
60	0x3d8f6431	0.07001532
61	0x3c8be5c0	0.017077327
62	0xbce50576	-0.027956706
63	0xbc6f0b6a	-0.014590124
64	0xbdd11f57	-0.10211056
65	0xbdfd731b	-0.1237547
66	0xbb196d3c	-0.0023411056
67	0xbc3ee08b	-0.011650215
68	0xbc7b3364	-0.015332077
69	0x3baa06d6	0.005188803
70	0xbdd4e1ed	-0.103946544
71	0x3da0e354	0.078558594
72	0xbcbbf98e	-0.022946145
73	0x3d1d0d30	0.038342655
74	0xbdd255c7	-0.10270267
75	0xbd2c02b7	-0.041994777
76	0xbd67966e	-0.056539945
77	0xbcf39c9f	-0.029737769
78	0xbd31ea83	-0.04343654
79	0xb9c73168	-0.00037993048
80	0xbd2a8e42	-0.041639574
81	0x3be91ffd	0.007114409
82	0x3d91d2da	0.07120295
83	0xbd8417ce	-0.06449853
84	0x3c385e50	0.011252955
85	0x3d23cd2f	0.0399906
86	0x3cf7f456	0.030267876
87	0x3d3d25d8	0.04617867
88	0xbd8a808e	-0.06762801
89	0x3ddb1868	0.106980145
90	0xbc27dc9d	-0.010245469
91	0x3d315c7c	0.04330109
92	0xbbf556fc	-0.007487176
93	0x3d1a5a36	0.037683688
94	0xbe0f4d4a	-0.13994327
95	0xbd92d8b4	-0.07170239
96	0xbb92ea00	-0.0044834614
97	0x3e226ba7	0.15861379
98	0x3deb3bd4	0.11486021
99	0xbcee437a	-0.02908491
100	0xbca0ad78	-0.019613966
101	0x3cf57647	0.029963626
102	0x3c05e4c7	0.008172221
103	0xbd46b0d6	-0.048508488
104	0xbdaa3f86	-0.083128974
105	0xbd233d6e	-0.039853506
106	0x3c38f881	0.011289717
107	0x3d7887e6	0.060676478
108	0xbdf165f3	-0.117870234
109	0xbd673959	-0.056451175
110	0x3c97b94f	0.01852098
111	0x3b0593ce	0.0020382288
112	0x3bbca3c0	0.005756825
113	0x3d8014c6	0.06253962
114	0xbe1fed4e	-0.15617868
115	0xbe43b016	-0.1911014
116	0xbd18ca60	-0.037302375
117	0xbd693261	-0.05693281
118	0xbe033e14	-0.1281665
119	0xbc711ea1	-0.014716775
120	0xbd427258	-0.047472328
121	0xbd008d13	-0.03138454
122	0xbd82f3d0	-0.0639416
123	0xbd448b35	-0.04798432
124	0xbd78a06b	-0.06069986
125	0x3bfa3d5e	0.00763671
126	0xbd80e88f	-0.06294357
127	0x3d83521e	0.06412147
128	0x3dd036e0	0.101667166
129	0xbd800ad8	-0.06252068
130	0xbd3a49ba	-0.045480467
131	0xbda7c039	-0.081909604
132	0xbdf2e0e3	-0.118593
133	0x3e118d1c	0.14213985
134	0xbd34e9c0	-0.044168234
135	0xbded749e	-0.115945086
136	0x3b8f8f5a	0.0043811025
137	0xbe3fa732	-0.18716124
138	0x3c2e0ced	0.010623199
139	0x3c12e0e7	0.008964754
140	0x3e34c282	0.17652324
141	0xbd516a8a	-0.051126994
142	0x3e049f7f	0.12951468
143	0xbd7553c7	-0.05989435
144	0xbdac614f	-0.08416998
145	0x3d86fab4	0.065907866
146	0xbe061346	-0.1309329
147	0x3d809198	0.0627777
148	0xbd8db536	-0.06919329
149	0xbcd074fb	-0.025446406
150	0xbe00f9ba	-0.12595263
151	0x3d26a765	0.040686984
152	0xbdbd529d	-0.09244273
153	0x3de0302d	0.10946689
154	0xbcbfdca7	-0.023420645
155	0xbe0123e9	-0.12611355
156	0xbd55b2f2	-0.05217261
157	0xbcc80c16	-0.024419826
158	0xbd457488	-0.048206836
159	0x3db6d675	0.08927623
160	0x3b859432	0.004076504
161	0x3d98d389	0.07462222
162	0x3e24826d	0.16065378
163	0x3cb0e792	0.021594796
164	0xbe11f1fe	-0.14252469
165	0xbd18f6bf	-0.03734469
166	0x3bb75053	0.005594292
167	0x3bec41be	0.0072099855
168	0xbd52d1e0	-0.051469684
169	0x3d76d555	0.060262043
170	0xbda451f6	-0.08023445
171	0xbdf85530	-0.12125623
172	0xbd606137	-0.05478021
173	0x3d8cf5c9	0.06882817
174	0xbd9525a9	-0.07282574
175	0xbd4786e0	-0.04871261
176	0xbb184649	-0.0023235253
177	0xbd9fedd1	-0.07809032
178	0xbd580976	-0.052743398
179	0xbbe45cb6	-0.00696906
180	0xbddc8d22	-0.107691064
181	0x3dbac431	0.09119452
182	0x3cab3cbb	0.020902982
183	0x3d5730f5	0.052536923
184	0x3cce9533	0.025217628
185	0x3e39aa44	0.18131357
186	0xbd0ce355	-0.03439649
187	0xbda43b85	-0.08019165
188	0xbe24ae5c	-0.16082138
189	0x3d3a1597	0.045430746
190	0xbdac5783	-0.08415129
191	0xbc63da82	-0.013907077
192	0x3d7eff0c	0.06225495
193	0x3bba880c	0.0056924876
194	0x3a986e46	0.0011629544
195	0xbdd3c7c7	-0.10340839
196	0xbca82143	-0.020523673
197	0xbd6ab895	-0.057304937
198	0xbd7ed001	-0.062210087
199	0xbd48ab43	-0.048991453
200	0xbd31b58c	-0.043386027
201	0x3cffc20e	0.031220462
202	0xbd929dcc	-0.071590036
203	0xbd5028d6	-0.050820194
204	0xbe225455	-0.15852483
205	0x3dfa5fab	0.122252785
206	0xbd90f13d	-0.070772626
207	0xbca188ca	-0.019718546
208	0xbda57cc0	-0.08080435
209	0xbd4be37b	-0.04977749
210	0xbd47c184	-0.048768535
211	0xbd572b99	-0.052531812
212	0xbe01236d	-0.1261117
213	0xbd553338	-0.0520508
214	0x3c768cd3	0.015048224
215	0xbd5082e2	-0.05090607
216	0xbda24e1a	-0.07925053
217	0x3d708c57	0.05872759
218	0x3d160be6	0.03663244
219	0xbd17a4f8	-0.03702256
220	0x3d4670e6	0.048447512
221	0x3c465034	0.012104083
222	0x3ca804fa	0.020510186
223	0xbdf227fc	-0.11824033
224	0x3ad57614	0.00162858
225	0x3b5e937e	0.0033962424
226	0xbe0168b6	-0.126376
227	0xbd952277	-0.07281964
228	0xbdc75397	-0.0973274
229	0x3d9ea107	0.07745557
230	0xba734bc4	-0.00092810043
231	0xbd1d609d	-0.038422216
232	0xbddd5f69	-0.10809214
233	0xbc71f60d	-0.014768136
234	0xbe31690d	-0.1732523
235	0xbdfa017f	-0.122073166
236	0xbd0fb81f	-0.0350877
237	0x3de02bda	0.10945864
238	0x3c481b6e	0.012213571
239	0xbdf867fc	-0.121292084
240	0x3c7cdad8	0.015433036
241	0x3d3baaa0	0.045817018
242	0x3cc38d61	0.023871126
243	0x3d605a82	0.054773815
244	0xbd147567	-0.036244776
245	0xbc8a35c6	-0.016871344
246	0xbca453d3	-0.020059502
247	0x3d17523a	0.03694365
248	0x3e5b3772	0.2140787
249	0xbc7dcfcb	-0.015491436
250	0x3ea30182	0.31837088
251	0x3d6942b5	0.056948382
252	0xbd259725	-0.040427346
253	0x3c9ebe45	0.019377837
254	0x3c2e6646	0.010644501
255	0xbdcb4ee7	-0.09927159
