machine learning/face_varification/param/mfm_3.weight.npy (npy, 295040 bytes, 1 tensors)

array f4 [384, 192, 1, 1]
00000000: 1892 07bd 4336 a2bd 287e 4e3d 68b3 09bd
00000010: 8b25 7c3d e831 4dbd 8ef8 fe3d 28d3 f53b
00000020: 2115 a43b 4935 863d 952b 7dbd 71dd 823c
00000030: 49ee ad3b 48a6 6cbd e919 01bb 4d39 483d
00000040: f575 a0bc 0204 d6bd a9b6 06be 5c34 4b3e
00000050: 3f73 17bc ada3 b23a 6ea3 fb3c ce37 853d
00000060: 3eb6 943d 4547 9dbc 05c0 23bc bad7 c9bc
00000070: 923f f33d 1230 0abd 6e69 c43d a453 72bd
00000080: 5dea a23c 25a3 ce3b e77a 043d 0fdb 573d
00000090: c750 bfbd 11d7 4ebd 3978 d0bb 7091 ebbc
000000a0: 3033 d8bc 150c 9f3d 7564 8f3b 2f8c f5bc
000000b0: 67e7 a93c 350a a1bd 34c1 e3bc 0899 76b9
000000c0: bd38 883c 9e2a 723c adca c1bc 66ab abbd
000000d0: 5f48 e3bc bf64 833d 1da0 943d 6297 f6bc
000000e0: d862 813b 6591 293d 441d 803c 7e96 bd3d
000000f0: 1247 f83c 5668 62bb db2d 923c 63ae 16bd
00000100: 8796 4dbd 96f9 fd3c 43bd e8bd 5252 1dbc
00000110: abd4 d6bd bb3b 94bc 692f bcbd 3c97 6abd
00000120: e8ef 89bd 5366 a2bb 70a2 37bd f7f5 b1bd
00000130: 5e3d 133d 7008 7d3c b992 863c 4fee 0dbe
00000140: 560c c4bc 1a28 c1bc aa9e 143e 900c 263d
00000150: 9e4b b4bc 6aa4 223d 59ad 5039 6c1f a3bb
00000160: 099e 08bc 8267 823c 8fc6 063c 03e9 cabd
00000170: ed26 963d 9ce9 0ebd 712b ecbc 3c25 8a3d
00000180: 5a98 503c 163e 92bc 15f4 94bc 5e13 c0bc
00000190: 06e2 5e3d b533 6fbd 0779 8dbd 7929 04bc
000001a0: b9b9 0b3d 61c4 19bd 5ea1 abbc 0ad0 11bd
000001b0: c5ac d63c 4602 5cbd 560b 1dbd c96e 90bd
000001c0: 61f3 aabd 309a b5bd 3ae0 abbc 1252 dbbb
000001d0: 43e2 92bd 7d7a f4bd 274a 45bc d22f 42bd
000001e0: 2a79 5f3c b6da 3fbd 3801 943d 4fb4 003e
000001f0: af14 4d3d 0ffa 793c 6126 82bd 7109 fbbd
00000200: d404 d0bd 5faf 8fbd fa16 0dbe 082f 81bd
00000210: 6470 91bd 51e8 6abd 9817 66bd 71d2 55bd
00000220: f685 013e 2e45 093d d5a3 aabd dfd9 30bd
00000230: f5ad dabc 0236 2abc e44b 1e3d 3f72 a1bd
00000240: 19e0 8bbb 7421 0eba 4523 aabd fd0f b63b
00000250: aaf5 b73d 7a59 f5bd a200 0f3d 0e3d 273b
00000260: 2b97 903d b5ca 0d3d 7c02 e93c cca1 a8bd
00000270: e430 ce3c 09ba 243c 4204 8bbd 0e2e 2dbc
00000280: 806d 2c3d b940 973d 1fb9 b73d c510 51bd
00000290: ba43 f0bc b74a 223c 4e62 c63c 10c1 27bd
000002a0: 95d3 363d c881 66bd dd9a 0fbe 2dd4 5ebd
000002b0: 365d 57bd cd7c 7e3d 84c3 08be fd74 9cbd
000002c0: 3404 db3d c0c6 b5bc cad8 59bd 649c b33c
000002d0: dda0 63bd 21d4 2dbd c2f7 803c a178 a93d
000002e0: 3216 733d 7be7 a1bb 81d5 353e 96db 95bd
000002f0: ef61 a0bd 357e fd3c 63c0 58bc e354 1ebd
00000300: 39bc ae3b 5674 593d 976b 60bd 636b 483d
00000310: 6a56 b43c 017a 0b3d 7f7a 9dbd 1449 47bd
00000320: 9818 3fbd 0bb9 97bd adfc 6b3c 62b2 b73d
00000330: 5245 2e3a 6c92 923b d539 c6bd 7a81 19bc
00000340: ea78 1b3d 32d9 053d 0990 cbbc eb45 89bd
00000350: e1cf 383d cddc b43b 813a e7bd b53f 29bc
00000360: 6bde 9b3d b9f0 a83c 914a cabc dd14 4b3d
00000370: 1096 43bd 3dac cebd 9257 be3d 5fc0 b3bd
00000380: 58fc fc3c af48 ff3c d529 9d3c c050 5c3d
00000390: cd29 2e3d 7a83 debc e481 53bd 0cf4 3ebd
000003a0: 5c40 c3ba 1b95 a83c b3ed 4dba 4d29 07be
000003b0: f775 babc 13ae a3bd de77 eabd 5fbd de3d
000003c0: 6ac3 acbc 6067 52bd 6135 cf3c 8309 d13c
000003d0: ce48 f73c 8049 e7ba 670b 23be dc6c 6b3c
000003e0: fe05 163d eacd 0abd 83fc 79bc cca7 94bd
000003f0: 0f1b 96bd 0f07 d0bc 2ed4 a73c 5607 403d
-0.03309831 -0.07920506 0.05041328 -0.03361836 0.06155924 -0.050096422 0.12449752 0.0075019784
0.0050074016 0.06553132 -0.06180914 0.015974732 0.005307947 -0.057775766 -0.0019699282 0.04888277
-0.019587496 -0.10449983 -0.13155617 0.19844192 -0.009243785 0.0013629101 0.030717578 0.065047845
0.072613224 -0.019199023 -0.0099945115 -0.024639 0.118773594 -0.03373725 0.095904216 -0.059161797
0.019887144 0.0063060694 0.03234377 0.052699145 -0.09341579 -0.050498072 -0.006361988 -0.028755873
-0.026391596 0.07765976 0.004375989 -0.029974071 0.020740224 -0.07863275 -0.027802087 -0.00023517397
0.016628617 0.014780669 -0.023656214 -0.08382301 -0.02774447 0.064157 0.07257102 -0.030101482
0.0039485507 0.041398425 0.015638955 0.0925722 0.030307326 -0.0034547052 0.017844131 -0.036787402
-0.050192382 0.0310028 -0.11364224 -0.009602146 -0.10489782 -0.018094888 -0.0918873 -0.057273135
-0.067352116 -0.0049560457 -0.044832647 -0.08689492 0.035947196 0.015443906 0.016427385 -0.13860439
-0.023931663 -0.023578692 0.1451365 0.040539324 -0.022008713 0.03970758 0.00019901003 -0.004978111
-0.00833846 0.015918497 0.008226051 -0.09907725 0.07331643 -0.034890756 -0.028829308 0.06745383
0.012731636 -0.01785187 -0.018182794 -0.023446735 0.05441477 -0.05839892 -0.0690785 -0.0080665285
0.034112666 -0.037540797 -0.02095097 -0.035598792 0.02620543 -0.053713106 -0.03834089 -0.070523806
-0.08347202 -0.088672996 -0.020980943 -0.006693133 -0.07172062 -0.11937425 -0.012041605 -0.047408886
0.013639728 -0.04683944 0.07226795 0.12568782 0.050068554 0.0152573725 -0.063549764 -0.1225766
-0.10157171 -0.07015871 -0.13778296 -0.063077986 -0.07101515 -0.05735046 -0.056174845 -0.052202646
0.12648758 0.03351324 -0.0833203 -0.043176528 -0.026694277 -0.010388853 0.038646594 -0.07883119
-0.004268658 -0.0005421855 -0.083075084 0.005556105 0.089824036 -0.11979957 0.034912713 0.002551857
0.07060083 0.034617145 0.028443567 -0.08233985 0.025169797 0.01005412 -0.067879215 -0.010570062
0.042096615 0.07385392 0.08970856 -0.051041383 -0.02932917 0.009905509 0.024216797 -0.040955603
0.044635374 -0.056276113 -0.1402392 -0.054401565 -0.052579127 0.062130738 -0.13355833 -0.07639501
0.10694161 -0.022189498 -0.05318526 0.021925159 -0.055573333 -0.04243863 0.01574314 0.08274961
0.05934734 -0.0049409247 0.17757227 -0.07317273 -0.07831179 0.03094397 -0.013229462 -0.038655173
0.0053324965 0.053089462 -0.054790106 0.048930537 0.022013862 0.0340519 -0.0768938 -0.048653677
-0.046654314 -0.07408341 0.014403504 0.08969571 0.0006647903 0.0044730213 -0.09678999 -0.0093692485
0.03795711 0.032677837 -0.024848955 -0.06702789 0.045120124 0.0055194856 -0.112904556 -0.01033013
0.07610782 0.020622598 -0.02469376 0.049580444 -0.047750533 -0.100914456 0.092940465 -0.08776926
0.030882046 0.031162588 0.019184986 0.053787947 0.042520333 -0.027162302 -0.051637545 -0.04661946
-0.00148965 0.020578912 -0.00078555493 -0.13199349 -0.022761328 -0.079921864 -0.11448644 0.108759634
-0.021089274 -0.051368117 0.025294008 0.02551723 0.030186083 -0.0017645806 -0.15922318 0.014369216
0.03662681 -0.03388778 -0.015257957 -0.07258567 -0.0732938 -0.02539399 0.020486917 0.046881996
